# parameters
nc: 80  # number of classes
depth_multiple: 1.0  # model depth multiple
width_multiple: 1.0  # layer channel multiple

# anchors
anchors:
  - [10,13, 16,30, 33,23]  # P3/8
  - [30,61, 62,45, 59,119]  # P4/16
  - [116,90, 156,198, 373,326]  # P5/32

# yolov7-tiny backbone
backbone:
  # [from, number, module, args] c2, k=1, s=1, p=None, g=1, act=True
  [  
   [-1, 1, Conv, [32, 3, 2, None, 1, nn.LeakyReLU(0.1)]], # 0
   [-1, 1, Conv, [64, 1, 2, None, 1, nn.LeakyReLU(0.1)]], # 1 
   [-1, 1, Conv, [64, 3, 1, None, 1, nn.LeakyReLU(0.1)]],
   [-1, 1, Conv, [128, 1, 2, None, 1, nn.LeakyReLU(0.1)]], # 3 
   [-1, 1, Conv, [128, 3, 1, None, 1, nn.LeakyReLU(0.1)]],
   [-1, 1, Conv, [256, 1, 2, None, 1, nn.LeakyReLU(0.1)]],  # 5
   [-1, 1, Conv, [256, 3, 1, None, 1, nn.LeakyReLU(0.1)]],
   [-1, 1, Conv, [512, 1, 2, None, 1, nn.LeakyReLU(0.1)]],  # 7
  ]

# yolov7-tiny head
head:
  [
   [3, 1, Conv, [128, 1, 1, None, 1, nn.LeakyReLU(0.1)]], # 8 
   [5, 1, Conv, [256, 1, 1, None, 1, nn.LeakyReLU(0.1)]], # 9
   [7, 1, Conv, [512, 1, 1, None, 1, nn.LeakyReLU(0.1)]], # 10

   [[8, 9, 10], 1, Detect, [nc, anchors]],  # Detect(P3, P4, P5)
  ]